models/traced_model.pt (torch, 141517 bytes, 5 tensors)

weight f4 [64, 480]
00000000: 5f18 94bc c1c7 0a3d bfe6 233d c591 91bb
00000010: 629c 12bc db0b 2c3c baae 7d3c 2c78 333d
00000020: ed73 85bc ad6a c7bc 4101 1bbd 2c84 423d
00000030: 9881 cebc fa66 933a 290c dabc 0598 cc3c
00000040: 6e01 9abc 8368 4b3d 1002 df3b efd5 803c
00000050: fc15 3a3d 8aa0 4b3d 8d80 7abc d2a7 3a3d
00000060: bb51 bbbc e283 aa3c dcee 11bd abb0 82bc
00000070: e455 ae3b 3357 4bbb 8aa6 bfbc 4db2 63bc
00000080: e955 c4bc 792f 913c 0acc b33c 45e1 a23a
00000090: c221 10bd 6444 edbc 29cd 50bc d92c 80bc
000000a0: 3b03 e93c 0f17 eebc b7b7 d23b 9825 223d
000000b0: 0b3e b13c 41e3 8a3c 7a2a 5239 3b6a 95ba
000000c0: 3720 8cbc 8d03 343d ec87 06bd f99e 123d
000000d0: cda8 dc3c 10fc 453d f20b 9039 d4ae f23c
000000e0: 5868 e5bc daeb fa3c 644c 8abc 4c82 8cbc
000000f0: 9eac a2bc 3ab8 1c3d a7c3 08bd 8f30 1dbd
00000100: f99d 21bd 2c02 94bb f6ad ff3a a3a2 a0bc
00000110: 83fc 2c3d a05f fabc cbe1 8f3c ab7b da3c
00000120: 05ce 07bd cb93 373d 58fd a53c d5f6 e43b
00000130: 9cb3 ef3c fe4f b63c 6e80 413d d821 a7bc
00000140: 1220 2c3d d838 633c 1b1c 19bc fb28 2f3d
00000150: 5f47 973c 79a7 d63c 1127 c6bc 4b74 173d
00000160: 8cc6 363d 30d4 233d 3bcf 8c3c a753 553c
00000170: 98e6 e8bc e506 91bc 3af7 273d aa24 16bd
00000180: 4093 133d dced 2c3d d39a a13c 98b7 0e3d
00000190: 1040 273c 9b82 933c 9485 febc f1fc 143d
000001a0: fccd db39 be3b 06bc 727f 39bc 63b7 b0ba
000001b0: 8937 133d cded dd3c b905 4e3d da39 1abd
000001c0: ea78 8dbc 5acd bd3c e195 9ebc d663 303a
000001d0: fe64 14bd b7ca d93c 9ba9 1a3d 5217 8b3c
000001e0: 04e9 10bd 0596 2b3b e611 253c a775 803c
000001f0: 438a c5bc ee31 d33b 52bf 923c c18b 9abc
00000200: ebb1 1abd 03da 283d 8d50 473d 5fff 153c
00000210: 869d 4f39 7283 2a3c 9275 683b 9ecd 76bc
00000220: 0f45 00bd db88 7f3a a74b c2bc 0738 8e3c
00000230: 8c73 4ebc 3680 b3bc c181 8abc 1af3 a13c
00000240: c6fd 89bb c0f8 113d 1e79 493d 0796 963c
00000250: b810 0f3d 15a1 fa3c 8e65 a43c ddb1 163d
00000260: 4021 efbc dc4d cbbc 3d8a 3f3d 7a03 a03c
00000270: 3a0f ca3c 1459 243c dd0e a23c 6069 18bc
00000280: 0c27 503b 715e 1c3d c578 07bd 0f5c d6bc
00000290: 479f b63c 996a 19bd 8260 bbbc 38b7 f73c
000002a0: 9b0b d13c 6116 13bc 1155 a33b d538 23bc
000002b0: 11e8 d4bc 2908 21bc 484c c1bc bf98 b43c
000002c0: 3558 6bbb f95a 15ba cf45 fa3b 80cf 9bbc
000002d0: 317c 27bc 185f 4e3d a78a 20bc 53f2 4a3d
000002e0: f562 e4bc 0921 09bc 2b20 6b3c b8d3 f03c
000002f0: 790a 00bd 74e2 9a3c 376c 18bd db24 0cbd
00000300: c215 6dbb c84c 0bbb b24c d8bc 8845 04bd
00000310: 70e4 ddbc e17a 8a3c 1bde 5c3c 0125 433d
00000320: b3c2 8cbc 7c73 eabc 8308 01bc 52e3 983c
00000330: bb73 023b 5336 bbbc 3053 0cbd 6564 113d
00000340: 7dd6 28bb 58c5 26bc bab6 f8bc f535 0fbc
00000350: eb65 143d cadb 2d3d 188a d83b a03d fa3c
00000360: bbe4 59bc 1c4b 193d 82d3 543c ebc7 093b
00000370: c605 28ba 2a1c 1ebd 6b7e 313c 0c7a 1dbd
00000380: f67c 1dbd c53e 383c 9ebf 1cbd 4cd9 8cbb
00000390: fa14 1cbc 76f9 c8bc 3e87 adbb c604 f6b8
000003a0: f981 933c 94e5 dcbc ef32 1b3d 7a19 c23c
000003b0: 7208 b93c b2cb b6bc 11a0 a0bb 094a 443c
000003c0: 7050 10bd 245d 0d3c 99d6 4f3d 4347 18bd
000003d0: 51b0 ccbc 0dbf 363d c070 58bc f693 ae3c
000003e0: d603 dc3c d676 413c f957 1d3b c680 71bc
000003f0: 700d 29bc c722 e5bc bbcf 313d bf9c f43c
-0.018078027 0.033881906 0.04001498 -0.004442426 -0.008948417 0.010500873 0.015483553 0.043815777
-0.01629063 -0.02434286 -0.037842993 0.04748933 -0.02520828 0.0011245899 -0.026617127 0.024974832
-0.01879951 0.049660217 0.006805666 0.015727011 0.045431122 0.04971365 -0.015289438 0.045570202
-0.02286612 0.02081484 -0.035628185 -0.015953382 0.0053202976 -0.0031027317 -0.023394842 -0.013897491
-0.023966746 0.017722832 0.02194788 0.0012426755 -0.035188444 -0.028963275 -0.0127442265 -0.015646385
0.028443923 -0.02906373 0.006430592 0.039586633 0.02163603 0.016954066 0.00020042984 -0.0011399457
-0.017105205 0.0439487 -0.03284447 0.03579614 0.02693596 0.04833609 0.0002747472 0.02962438
-0.028003857 0.03063004 -0.016882129 -0.017151974 -0.0198577 0.03826163 -0.033389714 -0.038376387
-0.039457295 -0.0045168605 0.00195068 -0.019608801 0.042233 -0.030563176 0.017563721 0.026670298
-0.03315546 0.04481868 0.020262405 0.0069874325 0.02926045 0.02225494 0.04724162 -0.02040188
0.042022772 0.013868533 -0.00934508 0.04276369 0.01846665 0.026202904 -0.02418855 0.03697614
0.044622943 0.03999728 0.017188659 0.013020433 -0.028430268 -0.017703483 0.041007258 -0.03665606
0.0360291 0.042219028 0.019727146 0.034843057 0.010208145 0.018006613 -0.031069554 0.036374036
0.00041924405 -0.008192955 -0.011321889 -0.0013482388 0.035941634 0.027090931 0.050298426 -0.037652828
-0.01726957 0.023169208 -0.019358577 0.0006728744 -0.036229126 0.02658592 0.037759405 0.016978893
-0.03537847 0.0026181948 0.010075068 0.015681101 -0.02411378 0.006445161 0.017913494 -0.018865468
-0.037767332 0.041223537 0.048660804 0.0091551235 0.0001979974 0.010407316 0.0035470468 -0.015063671
-0.03131586 0.0009747871 -0.023717714 0.0173607 -0.012600791 -0.021911722 -0.016907575 0.01976924
-0.0042111604 0.035637617 0.049187772 0.018382085 0.034928054 0.030594388 0.020067956 0.036790717
-0.02919066 -0.0248174 0.046762694 0.019532908 0.024665464 0.0100310035 0.019782478 -0.009302467
0.0031761555 0.038176004 -0.03307416 -0.026166944 0.022292746 -0.037455175 -0.022873167 0.030238733
0.02551823 -0.0089775035 0.004984506 -0.00996228 -0.025989564 -0.009828606 -0.023595944 0.022045491
-0.003591073 -0.0005697455 0.0076377164 -0.019019842 -0.010222481 0.050383657 -0.009798682 0.049547505
-0.027879218 -0.008369693 0.014350931 0.02939783 -0.031259988 0.01890681 -0.037212577 -0.034214836
-0.0036176299 -0.0021255482 -0.026403759 -0.032292873 -0.027086467 0.016904296 0.013480688 0.04764271
-0.017182684 -0.02861952 -0.0078755645 0.018663082 0.0019905407 -0.022853052 -0.03425902 0.035496134
-0.002576261 -0.010178886 -0.030360568 -0.008740892 0.03623001 0.042445935 0.006608259 0.030546963
-0.0132991625 0.037425146 0.0129898805 0.0021023701 -0.0006409552 -0.038601078 0.010833363 -0.03844647
-0.03844925 0.011245434 -0.038268678 -0.0042983647 -0.009526486 -0.024533015 -0.005295663 -0.00011731083
0.018006312 -0.02696494 0.03789037 0.023693789 0.022587035 -0.022313926 -0.004901894 0.011980542
-0.03523296 0.0086281635 0.050741766 -0.037177335 -0.024986418 0.044615794 -0.013210475 0.021310788
0.026857298 0.011808118 0.0024008735 -0.014740175 -0.010318145 -0.027970685 0.043410998 0.029859899

bias f4 [64]
00000000: c546 3f3c c843 9e3b 50a7 c7bc b048 273b
00000010: e4ab a2bc 8cf0 1cbc 10bf 07bd 4048 24bb
00000020: 526a 0a3d 4b17 9cbc aac7 64ba de87 23bd
00000030: 2c73 b7bc e30d bbbc f388 5b3c 2075 51bc
00000040: c963 a8bc 01fd 413c 702b 70bb adc8 debc
00000050: 0c9b 68bc da28 473c fe87 0a3d c07e 4dbc
00000060: c563 2bbc c723 c1bc 1b00 0d3d 701a cfbb
00000070: 1a2c f4bc ea01 343c c90e cbbc 7a62 04bd
00000080: 929d 7a3c 5551 ffbc 2091 153c f76b 36bd
00000090: 00a3 e83b d195 44bc 1081 b6bc 8023 943c
000000a0: 5fb0 05bd 7fe9 37bd 7f2a bbbc b881 1abd
000000b0: 843a e33c bcc0 d23c de3a 27bd 0988 063d
000000c0: 6860 af3c 805d a03c 68ee 55bd 447a 32bd
000000d0: d079 153d 7890 cc3b d2f9 16bd eee2 29bd
000000e0: 094a b1bc ae1a 253d 107f 3f3c c530 38bd
000000f0: e54e 2c3c 59f6 19bd b634 abbc 6cd2 c93b
0.011674588 0.0048298575 -0.024371773 0.0025525503 -0.019857354 -0.009578835 -0.033141196 -0.0025067478
0.0337928 -0.019054076 -0.0008727262 -0.039924495 -0.022393785 -0.02283377 0.01339935 -0.012784272
-0.020555394 0.011840106 -0.0036646985 -0.027195299 -0.014197122 0.012155736 0.0338211 -0.012542427
-0.010460799 -0.02357663 0.03442393 -0.0063202903 -0.029806186 0.0109867845 -0.024787324 -0.032320477
0.015296357 -0.031166712 0.009128839 -0.044536557 0.0070995092 -0.01199861 -0.022278339 0.018083334
-0.032638904 -0.044900414 -0.022847412 -0.037721366 0.027737863 0.025726669 -0.040827624 0.032844577
0.021408275 0.019575834 -0.052229315 -0.043573633 0.036493123 0.006242808 -0.03685934 -0.041476183
-0.021641748 0.040308647 0.011688009 -0.044968385 0.010516857 -0.03758845 -0.020899158 0.0061591174

weight f4 [32, 64]
00000000: 6ce9 813d 7ce8 163d 4461 bf3d 00b1 4d3a
00000010: 422a 063c d4f1 72bd dc6f 9c3d 0c0e 9f3d
00000020: 7a79 ae3d 1253 8cbd 07c0 a6bd 3664 e0bd
00000030: 7cdc bdbc bcc6 d0bd 494a 203d ebd4 5b3d
00000040: 7b7c 123d c6c5 ac3d 4299 8fbd 46e4 9abd
00000050: ed86 8c3d 0ff0 f03d 105f 57bc 8ab3 893d
00000060: 6bd4 603d 864e a9bd 1154 903d c061 cc3c
00000070: dddc 923d 047f ef3c e7c0 f6bc fd3a 933c
00000080: c271 45bc dbe1 19bd 3fe9 e3bd 409e b73c
00000090: 9eb4 90bd 9dc6 5ebd eac4 983d 975f 95bd
000000a0: 81b6 83bd 90f2 193d b886 e3bc 622b f63d
000000b0: 6ee7 bd3d c586 babd 3151 a63d 5a1f 09bd
000000c0: 7f5d b8bd c8f1 8d3c 0301 063c 1c3c 3f3d
000000d0: ca89 aa3d c4a5 b43d 9803 acbc a77c d63b
000000e0: 800b 563c 2c33 0cbd bcb0 e23d 774f 973d
000000f0: 54c4 c2bd 560a e93d 3ae3 b3bd 0ea4 d33d
00000100: d283 eabd fc0d febd b269 82bd 0033 bf3d
00000110: 2877 003d a063 18bd 740f 95bd 3c2b 2f3d
00000120: 40ce 6c3d 9ece a73d ee5e 0a3c 060d adbd
00000130: e8f3 a4bd 0080 b03c 4036 9ebc cd0d 40bd
00000140: 31cc 10bd bdde e0bd 363a d9bd 1c49 22bd
00000150: c0d7 643c 9989 133c 188f 4abd ca59 8c3d
00000160: 23ca 0dbd f8e4 933c 3c5c 2fbd 164b 9fbd
00000170: 3894 6c3d f22a f3bd 20b6 74bc 495d c13d
00000180: 500a 68bc 46b0 c43d 1484 61bd 3819 d43c
00000190: e445 49bd ae8a cbbd d24d b23d e09e b03c
000001a0: a58f c5bd 3840 f53c bad5 e93d f07c 6cbc
000001b0: b8b0 f73c 6043 96bd 4b0c 883d d864 1fbd
000001c0: 98e5 e03c 0004 4dbd 8285 07bd 902f 42bd
000001d0: c691 28bd 3809 67bd 162e a53d 90e3 1e3c
000001e0: 686e e93c e023 dbbd 1a48 bf3d 6e8b 963d
000001f0: 5ef5 f5bd 3c80 c7bd 8094 7fbc d446 ffbd
00000200: 4ffc e4bd e851 9a3d 95fe f4bd ba3a ea3d
00000210: 6d66 613c 2210 f43d b7d6 ac3d 9af5 bf3d
00000220: 99d8 c13d 00c8 6839 38cc 97bd 5e82 abbd
00000230: 8411 1abd e063 29bc 246f 50bd 6429 3ebd
00000240: c84b c33c 4d40 05be ee98 bb3d 9a0e 2fbd
00000250: 8262 883d b713 8ebd 0ec4 adbd 00f5 d93a
00000260: 1680 02be f290 1b3d fe0a bf3c ba08 cbbd
00000270: 6299 7cbd 9ac4 ed3c 6da1 163d 3a4d 76bc
00000280: 28ab e8bc bea9 a23d 0ec3 e43d e0fc 8dbc
00000290: 6c1c 46bd d839 dabd 4ce1 33bd f9fc cfbd
000002a0: c560 c33c 7045 2bbc 00ad 63bb bcda 253d
000002b0: b0dd cebc 4536 8b3c b33d 803c 00a3 e4bd
000002c0: 6b52 cc3d 806c d2bc bbfa 38bc 56f4 fd3d
000002d0: 42a7 b5bd 30d1 7bbd 407f d03b b2ce 9b3d
000002e0: 00d5 eebb 706f 3fbd 0627 b7bd 0c5e 97bc
000002f0: 20bb e83d 2430 4c3c 7069 17bd 2b0f 773d
00000300: d6e2 f73d 28fa 9c3c 594d ae3b b623 80bd
00000310: b0b5 42bc 78ec d3bc 1cfa d0bd 7871 d2bd
00000320: 9c16 123d ee03 b4bd bdc7 ae3d 08cb 3a3d
00000330: 3a5f 9b3d b6d3 dabd 4831 fcbd 9677 66bd
00000340: f0a0 8bbd 4890 e43d 7a64 d23d 1854 a33d
00000350: 28b8 2abd 00cd ec3d 7c21 81bd 0e8f e63d
00000360: c78d b93d ce62 dfbd 643e f1bd e65c f03d
00000370: a811 d0bc 0570 2dbe acf0 d2bd 2057 1fbd
00000380: a9fc adbd d06a 77bc 6835 39be 6e77 e63d
00000390: 9eb1 e5bd 7c59 c3bd 0eb9 cb3d 00b8 833a
000003a0: 18af 6abd 8268 ac3d 5c41 033d d4f5 433d
000003b0: b061 42bd 54b1 dd3d 4fa0 403c d2d4 a33d
000003c0: d49e 863d 783c bc3d 08fd dc3c e4bd 6cbd
000003d0: 5668 883d 3ec0 efbd 4430 b1bd 909c e8bc
000003e0: 003f b63b 001f 153d c095 1f3b 887d 0dbd
000003f0: 8005 2dbc 32c4 98bd e0e5 e9bd 9886 833c
0.0634335 0.036842808 0.09344724 0.00078465044 0.008188786 -0.059312657 0.07638523 0.07766351
0.085192636 -0.06851782 -0.08142095 -0.10956614 -0.023176424 -0.101941556 0.039133344 0.05366985
0.035763245 0.0843616 -0.070116535 -0.07563071 0.068616726 0.117645375 -0.013145223 0.067236975
0.054890078 -0.0826693 0.070472844 0.024948955 0.071710326 0.02923537 -0.03012128 0.017972464
-0.012051048 -0.03756891 -0.111284725 0.022414327 -0.070657 -0.05438863 0.074594334 -0.07293623
-0.06431294 0.03758484 -0.0277742 0.12019993 0.09272657 -0.091077365 0.08120955 -0.033477165
-0.09002208 0.017327204 0.008178952 0.046688184 0.083270624 0.0882068 -0.020997807 0.0065456214
0.013064265 -0.03422849 0.11068866 0.073882036 -0.09510103 0.113789245 -0.087835744 0.10334025
-0.11450924 -0.12405011 -0.06367816 0.09335899 0.031363636 -0.037204385 -0.07278338 0.04276584
0.057813883 0.08193706 0.008445485 -0.0844975 -0.08054334 0.02154541 -0.019312978 -0.04688816
-0.035350982 -0.10979984 -0.10606806 -0.039620504 0.013967454 0.009004974 -0.04945287 0.068530634
-0.0346166 0.018053517 -0.04281257 -0.077779934 0.05775854 -0.118734255 -0.014936 0.09441621
-0.014162615 0.09603934 -0.0550576 0.025890931 -0.04913892 -0.099385604 0.08706249 0.021560133
-0.09646539 0.029937848 0.11417718 -0.014434084 0.030235633 -0.073370695 0.0664297 -0.03891453
0.027453229 -0.050052643 -0.033086307 -0.04740864 -0.041154645 -0.056405276 0.08065431 0.00969781
0.028495029 -0.10700202 0.09339924 0.07350813 -0.12009691 -0.09741256 -0.01559937 -0.12464681
-0.111809365 0.075351536 -0.1196262 0.114369825 0.01375733 0.119171396 0.08439391 0.09373017
0.09465141 0.0002219975 -0.074119985 -0.08374475 -0.03761436 -0.010338753 -0.050887242 -0.046426192
0.023839846 -0.1301281 0.091600284 -0.042738535 0.06659414 -0.06937354 -0.0848466 0.0016628802
-0.12744173 0.037980027 0.023320671 -0.09913774 -0.061669715 0.029024411 0.03677504 -0.015033061
-0.028401926 0.07942532 0.11170016 -0.017332494 -0.04836695 -0.10655564 -0.04391603 -0.101556726
0.023849854 -0.010453567 -0.0034740567 0.040491804 -0.025252193 0.016993651 0.01565442 -0.11163902
0.099766575 -0.025686502 -0.011290248 0.12400119 -0.088697925 -0.061478794 0.0063628256 0.076077834
-0.007288575 -0.046737134 -0.0894299 -0.018477462 0.11363816 0.0124626495 -0.036965787 0.0603172
0.121038124 0.019162253 0.005319279 -0.06256811 -0.011884138 -0.025869593 -0.102039546 -0.10275549
0.035666093 -0.08789812 0.08534191 0.045603782 0.075865224 -0.10684912 -0.12314087 -0.05626639
-0.06817806 0.11160332 0.10273071 0.07975024 -0.04167953 0.11562538 -0.06305215 0.11257754
0.09060245 -0.109075174 -0.11779478 0.11736469 -0.025399044 -0.16937263 -0.10299811 -0.03890145
-0.08495457 -0.01510115 -0.18086779 0.11253248 -0.112155184 -0.09538552 0.09947406 0.0010049343
-0.05729589 0.08418371 0.032044753 0.04784186 -0.047456443 0.10824838 0.011756971 0.07999577
0.06573263 0.09191221 0.026976123 -0.05779828 0.066605255 -0.11706589 -0.08651784 -0.028394967
0.0055617094 0.036406517 0.0024350733 -0.034543544 -0.010560393 -0.07459296 -0.11420798 0.01605539

bias f4 [32]
00000000: 35a7 023d 72cf 90bd 1b9d 17bc 4a0d 473d
00000010: c5f6 afbd 9466 513d 0066 c0b9 5025 113d
00000020: 40d6 ff3b 81f3 183d 25f1 323d 8e96 85bd
00000030: 2423 07bd f93b 9dbc 97c4 84bd c39b fd3d
00000040: a14e 993d a7b2 b73c 0fbe 88bd 0635 943d
00000050: c430 d43d 50da 0c3d 4a4f 86bd dfb1 d93d
00000060: 34ce 1d3d 2259 d9bd c576 91bd ef7e 843d
00000070: dcac c1bc 1109 363e b8a1 ec3d 2949 f9bd
0.031897742 -0.07070817 -0.009253765 0.048596658 -0.085919894 0.051123217 -0.0003669709 0.035435975
0.007807523 0.0373416 0.043687005 -0.06522857 -0.032992497 -0.019193636 -0.06482809 0.12383225
0.074857004 0.022424055 -0.06676876 0.07236676 0.10360864 0.034387887 -0.06558092 0.10629629
0.03852673 -0.10612704 -0.071027316 0.06469523 -0.023641996 0.17776896 0.11554283 -0.12172157

weight f4 [1, 32]
00000000: 9091 c9bd f458 5c3d 9c86 033e 3856 fbbd
00000010: 90d5 46be 0100 9a3d 1b8a 053e acd2 c83d
00000020: 808b 993a bb8e 203e 6cac 443d 2271 c53d
00000030: 0f3f 133e 523e 593b 0f79 263d bbd8 c13c
00000040: 0a8f ea3d 4b6d 0dbe 4635 5b3d 86e9 ecbd
00000050: 60b4 26bd f611 8ebd 1c81 02be ad19 803d
00000060: 65fd 123e 2e05 33be 3ec8 ca3d 49a9 c9bd
00000070: e75b f83d 3184 bb3d f363 2a3e 2c49 36be
-0.09842217 0.05379577 0.12844318 -0.12272304 -0.19417405 0.07519532 0.13040964 0.098058075
0.0011714548 0.15679447 0.048015997 0.09640719 0.14379524 0.0033148718 0.040642794 0.023662915
0.11453064 -0.13811223 0.053517602 -0.115679786 -0.040699363 -0.069370195 -0.12744564 0.06254897
0.14354475 -0.17482445 0.099014744 -0.09846742 0.12126904 0.09156073 0.1663969 -0.1780135
